{"data_dir": "2017_11_17_slow/", "model": "NVIDIA", "frac": 1.0, "epochs": 20, "showplot": 0, "batchsize": 600}_________________________________________________________________
Layer (type)                 Output Shape              Param #   
=================================================================
lambda_1 (Lambda)            (None, 160, 320, 1)       0         
_________________________________________________________________
cropping2d_1 (Cropping2D)    (None, 65, 320, 1)        0         
_________________________________________________________________
conv2d_1 (Conv2D)            (None, 31, 158, 24)       624       
_________________________________________________________________
conv2d_2 (Conv2D)            (None, 14, 77, 36)        21636     
_________________________________________________________________
conv2d_3 (Conv2D)            (None, 5, 37, 48)         43248     
_________________________________________________________________
conv2d_4 (Conv2D)            (None, 3, 35, 64)         27712     
_________________________________________________________________
conv2d_5 (Conv2D)            (None, 1, 33, 64)         36928     
_________________________________________________________________
flatten_1 (Flatten)          (None, 2112)              0         
_________________________________________________________________
dense_1 (Dense)              (None, 100)               211300    
_________________________________________________________________
dense_2 (Dense)              (None, 50)                5050      
_________________________________________________________________
dense_3 (Dense)              (None, 10)                510       
_________________________________________________________________
dense_4 (Dense)              (None, 1)                 11        
=================================================================
Total params: 347,019
Trainable params: 347,019
Non-trainable params: 0
_________________________________________________________________
