{"frac": 0.1, "batchsize": 100, "epochs": 15, "showplot": 0, "data_dir": "2017_11_17_slow", "model": "cnn"}_________________________________________________________________
Layer (type)                 Output Shape              Param #   
=================================================================
lambda_1 (Lambda)            (None, 160, 320, 3)       0         
_________________________________________________________________
cropping2d_1 (Cropping2D)    (None, 65, 320, 3)        0         
_________________________________________________________________
conv2d_1 (Conv2D)            (None, 61, 316, 10)       760       
_________________________________________________________________
max_pooling2d_1 (MaxPooling2 (None, 30, 158, 10)       0         
_________________________________________________________________
flatten_1 (Flatten)          (None, 47400)             0         
_________________________________________________________________
dense_1 (Dense)              (None, 1)                 47401     
=================================================================
Total params: 48,161
Trainable params: 48,161
Non-trainable params: 0
_________________________________________________________________
