{"frac": 1.0, "batchsize": 100, "data_dir": "2017_12_02_smooth_30mph_long", "epochs": 20, "showplot": 0, "timesteps": 3, "throttle": 1, "dropout": 0.2}_________________________________________________________________
Layer (type)                 Output Shape              Param #   
=================================================================
lambda_1 (Lambda)            (None, 3, 160, 320, 1)    0         
_________________________________________________________________
time_distributed_1 (TimeDist (None, 3, 65, 320, 1)     0         
_________________________________________________________________
time_distributed_2 (TimeDist (None, 3, 31, 158, 24)    624       
_________________________________________________________________
time_distributed_3 (TimeDist (None, 3, 14, 77, 36)     21636     
_________________________________________________________________
time_distributed_4 (TimeDist (None, 3, 5, 37, 48)      43248     
_________________________________________________________________
time_distributed_5 (TimeDist (None, 3, 3, 35, 64)      27712     
_________________________________________________________________
time_distributed_6 (TimeDist (None, 3, 1, 33, 64)      36928     
_________________________________________________________________
time_distributed_7 (TimeDist (None, 3, 2112)           0         
_________________________________________________________________
lstm_1 (LSTM)                (None, 100)               885200    
_________________________________________________________________
dense_1 (Dense)              (None, 100)               10100     
_________________________________________________________________
dropout_1 (Dropout)          (None, 100)               0         
_________________________________________________________________
dense_2 (Dense)              (None, 50)                5050      
_________________________________________________________________
dropout_2 (Dropout)          (None, 50)                0         
_________________________________________________________________
dense_3 (Dense)              (None, 10)                510       
_________________________________________________________________
dense_4 (Dense)              (None, 2)                 22        
=================================================================
Total params: 1,031,030
Trainable params: 1,031,030
Non-trainable params: 0
_________________________________________________________________
