{"frac": 0.2, "batchsize": 100, "epochs": 15, "showplot": 0, "data_dir": "2017_11_17_slow", "model": "complex"}_________________________________________________________________
Layer (type)                 Output Shape              Param #   
=================================================================
lambda_1 (Lambda)            (None, 160, 320, 3)       0         
_________________________________________________________________
cropping2d_1 (Cropping2D)    (None, 65, 320, 3)        0         
_________________________________________________________________
conv2d_1 (Conv2D)            (None, 31, 158, 24)       1824      
_________________________________________________________________
conv2d_2 (Conv2D)            (None, 14, 77, 40)        24040     
_________________________________________________________________
conv2d_3 (Conv2D)            (None, 5, 37, 50)         50050     
_________________________________________________________________
flatten_1 (Flatten)          (None, 9250)              0         
_________________________________________________________________
dense_1 (Dense)              (None, 100)               925100    
_________________________________________________________________
dense_2 (Dense)              (None, 50)                5050      
_________________________________________________________________
dense_3 (Dense)              (None, 10)                510       
_________________________________________________________________
dense_4 (Dense)              (None, 1)                 11        
=================================================================
Total params: 1,006,585
Trainable params: 1,006,585
Non-trainable params: 0
_________________________________________________________________
