{"frac": 1.0, "batchsize": 100, "epochs": 10, "showplot": 0, "timesteps": 10, "data_dir": "2017_11_17_slow"}_________________________________________________________________
Layer (type)                 Output Shape              Param #   
=================================================================
lambda_1 (Lambda)            (None, 10, 160, 320, 1)   0         
_________________________________________________________________
time_distributed_1 (TimeDist (None, 10, 65, 320, 1)    0         
_________________________________________________________________
time_distributed_2 (TimeDist (None, 10, 31, 158, 24)   624       
_________________________________________________________________
time_distributed_3 (TimeDist (None, 10, 14, 77, 36)    21636     
_________________________________________________________________
time_distributed_4 (TimeDist (None, 10, 5, 37, 48)     43248     
_________________________________________________________________
time_distributed_5 (TimeDist (None, 10, 3, 35, 64)     27712     
_________________________________________________________________
time_distributed_6 (TimeDist (None, 10, 1, 33, 64)     36928     
_________________________________________________________________
time_distributed_7 (TimeDist (None, 10, 2112)          0         
_________________________________________________________________
lstm_1 (LSTM)                (None, 100)               885200    
_________________________________________________________________
dense_1 (Dense)              (None, 100)               10100     
_________________________________________________________________
dense_2 (Dense)              (None, 50)                5050      
_________________________________________________________________
dense_3 (Dense)              (None, 10)                510       
_________________________________________________________________
dense_4 (Dense)              (None, 1)                 11        
=================================================================
Total params: 1,031,019
Trainable params: 1,031,019
Non-trainable params: 0
_________________________________________________________________
