{"frac": 0.03, "batchsize": 100, "epochs": 15, "showplot": 0, "data_dir": "2017_11_17_slow", "model": "simple"}_________________________________________________________________
Layer (type)                 Output Shape              Param #   
=================================================================
lambda_1 (Lambda)            (None, 160, 320, 3)       0         
_________________________________________________________________
cropping2d_1 (Cropping2D)    (None, 65, 320, 3)        0         
_________________________________________________________________
flatten_1 (Flatten)          (None, 62400)             0         
_________________________________________________________________
dense_1 (Dense)              (None, 10)                624010    
_________________________________________________________________
dense_2 (Dense)              (None, 1)                 11        
=================================================================
Total params: 624,021
Trainable params: 624,021
Non-trainable params: 0
_________________________________________________________________
