{"frac": 1.0, "batchsize": 100, "epochs": 15, "showplot": 0, "timesteps": 5, "data_dir": "2017_12_02_smooth_30mph_long"}_________________________________________________________________
Layer (type)                 Output Shape              Param #   
=================================================================
lambda_1 (Lambda)            (None, 5, 160, 320, 1)    0         
_________________________________________________________________
time_distributed_1 (TimeDist (None, 5, 65, 320, 1)     0         
_________________________________________________________________
time_distributed_2 (TimeDist (None, 5, 31, 158, 24)    624       
_________________________________________________________________
time_distributed_3 (TimeDist (None, 5, 14, 77, 36)     21636     
_________________________________________________________________
time_distributed_4 (TimeDist (None, 5, 5, 37, 48)      43248     
_________________________________________________________________
time_distributed_5 (TimeDist (None, 5, 3, 35, 64)      27712     
_________________________________________________________________
time_distributed_6 (TimeDist (None, 5, 1, 33, 64)      36928     
_________________________________________________________________
time_distributed_7 (TimeDist (None, 5, 2112)           0         
_________________________________________________________________
lstm_1 (LSTM)                (None, 100)               885200    
_________________________________________________________________
dense_1 (Dense)              (None, 100)               10100     
_________________________________________________________________
dense_2 (Dense)              (None, 50)                5050      
_________________________________________________________________
dense_3 (Dense)              (None, 10)                510       
_________________________________________________________________
dense_4 (Dense)              (None, 1)                 11        
=================================================================
Total params: 1,031,019
Trainable params: 1,031,019
Non-trainable params: 0
_________________________________________________________________
